…
python cnn_dm.py --test_src ./cnndm_data_prophetnet/prophetnet_tokenized/test.src.txt  --test_ref ./cnndm_data_prophetnet/prophetnet_tokenized/test.tgt.txt  --existed_vocab ./cnndm_data_prophetnet/cnndm_torch_prophetnet_30522.bin  --noise_prob 0.0  --output_folder ./cnndm_data_prophetnet/dataset_hugging_face_tokenized/ --max_len 512


# train
bash run_gpu.sh --task t --device_num 1 --device_id 3 --config ./config/config.json

# inference
bash run_gpu.sh --task i \
                --device_num 1 \
                --device_id 3 \
                --config ./config/test.json \
                --output output \
                --metric rouge \
                --vocab ./cnndm_data_prophetnet/cnndm_torch_prophetnet_30522.bin
    
# pytorch model structure
NgramTransformerProphetModel(
  (encoder): TransformerEncoder(
    (embed_tokens): Embedding(30522, 512, padding_idx=0)
    (embed_positions): LearnedPositionalEmbedding(513, 512, padding_idx=0)
    (layers): ModuleList(
      (0): TransformerEncoderLayer(
        (self_attn): MultiheadAttention(
          (k_proj): Linear(in_features=512, out_features=512, bias=True)
          (v_proj): Linear(in_features=512, out_features=512, bias=True)
          (q_proj): Linear(in_features=512, out_features=512, bias=True)
          (out_proj): Linear(in_features=512, out_features=512, bias=True)
        )
        (self_attn_layer_norm): LayerNorm((512,), eps=1e-05, elementwise_affine=True)
        (fc1): Linear(in_features=512, out_features=2048, bias=True)
        (fc2): Linear(in_features=2048, out_features=512, bias=True)
        (final_layer_norm): LayerNorm((512,), eps=1e-05, elementwise_affine=True)
      )
      (1): TransformerEncoderLayer(
        (self_attn): MultiheadAttention(
          (k_proj): Linear(in_features=512, out_features=512, bias=True)
          (v_proj): Linear(in_features=512, out_features=512, bias=True)
          (q_proj): Linear(in_features=512, out_features=512, bias=True)
          (out_proj): Linear(in_features=512, out_features=512, bias=True)
        )
        (self_attn_layer_norm): LayerNorm((512,), eps=1e-05, elementwise_affine=True)
        (fc1): Linear(in_features=512, out_features=2048, bias=True)
        (fc2): Linear(in_features=2048, out_features=512, bias=True)
        (final_layer_norm): LayerNorm((512,), eps=1e-05, elementwise_affine=True)
      )
      (2): TransformerEncoderLayer(
        (self_attn): MultiheadAttention(
          (k_proj): Linear(in_features=512, out_features=512, bias=True)
          (v_proj): Linear(in_features=512, out_features=512, bias=True)
          (q_proj): Linear(in_features=512, out_features=512, bias=True)
          (out_proj): Linear(in_features=512, out_features=512, bias=True)
        )
        (self_attn_layer_norm): LayerNorm((512,), eps=1e-05, elementwise_affine=True)
        (fc1): Linear(in_features=512, out_features=2048, bias=True)
        (fc2): Linear(in_features=2048, out_features=512, bias=True)
        (final_layer_norm): LayerNorm((512,), eps=1e-05, elementwise_affine=True)
      )
    )
    (emb_layer_norm): LayerNorm((512,), eps=1e-05, elementwise_affine=True)
  )
  (decoder): NgramTransformerDecoder(
    (embed_tokens): Embedding(30522, 512, padding_idx=0)
    (embed_positions): LearnedPositionalEmbedding(514, 512, padding_idx=0)
    (ngram_input_embed): Embedding(2, 512)
    (layers): ModuleList(
      (0): NgramTransformerDecoderLayer(
        (ngram_self_attn): NgramMultiheadAttention(
          (relative_linear): Linear(in_features=512, out_features=256, bias=True)
          (out_proj): Linear(in_features=512, out_features=512, bias=True)
        )
        (self_attn_layer_norm): LayerNorm((512,), eps=1e-05, elementwise_affine=True)
        (encoder_attn): MultiheadAttention(
          (k_proj): Linear(in_features=512, out_features=512, bias=True)
          (v_proj): Linear(in_features=512, out_features=512, bias=True)
          (q_proj): Linear(in_features=512, out_features=512, bias=True)
          (out_proj): Linear(in_features=512, out_features=512, bias=True)
        )
        (encoder_attn_layer_norm): LayerNorm((512,), eps=1e-05, elementwise_affine=True)
        (fc1): Linear(in_features=512, out_features=2048, bias=True)
        (fc2): Linear(in_features=2048, out_features=512, bias=True)
        (final_layer_norm): LayerNorm((512,), eps=1e-05, elementwise_affine=True)
      )
      (1): NgramTransformerDecoderLayer(
        (ngram_self_attn): NgramMultiheadAttention(
          (relative_linear): Linear(in_features=512, out_features=256, bias=True)
          (out_proj): Linear(in_features=512, out_features=512, bias=True)
        )
        (self_attn_layer_norm): LayerNorm((512,), eps=1e-05, elementwise_affine=True)
        (encoder_attn): MultiheadAttention(
          (k_proj): Linear(in_features=512, out_features=512, bias=True)
          (v_proj): Linear(in_features=512, out_features=512, bias=True)
          (q_proj): Linear(in_features=512, out_features=512, bias=True)
          (out_proj): Linear(in_features=512, out_features=512, bias=True)
        )
        (encoder_attn_layer_norm): LayerNorm((512,), eps=1e-05, elementwise_affine=True)
        (fc1): Linear(in_features=512, out_features=2048, bias=True)
        (fc2): Linear(in_features=2048, out_features=512, bias=True)
        (final_layer_norm): LayerNorm((512,), eps=1e-05, elementwise_affine=True)
      )
      (2): NgramTransformerDecoderLayer(
        (ngram_self_attn): NgramMultiheadAttention(
          (relative_linear): Linear(in_features=512, out_features=256, bias=True)
          (out_proj): Linear(in_features=512, out_features=512, bias=True)
        )
        (self_attn_layer_norm): LayerNorm((512,), eps=1e-05, elementwise_affine=True)
        (encoder_attn): MultiheadAttention(
          (k_proj): Linear(in_features=512, out_features=512, bias=True)
          (v_proj): Linear(in_features=512, out_features=512, bias=True)
          (q_proj): Linear(in_features=512, out_features=512, bias=True)
          (out_proj): Linear(in_features=512, out_features=512, bias=True)
        )
        (encoder_attn_layer_norm): LayerNorm((512,), eps=1e-05, elementwise_affine=True)
        (fc1): Linear(in_features=512, out_features=2048, bias=True)
        (fc2): Linear(in_features=2048, out_features=512, bias=True)
        (final_layer_norm): LayerNorm((512,), eps=1e-05, elementwise_affine=True)
      )
    )
    (emb_layer_norm): LayerNorm((512,), eps=1e-05, elementwise_affine=True)
  )
)

data example:
src_tokens
tensor([[ 1996, 11555, 18172,  7042,  2055,  1037, 18147,  5913,  3756,  6982,
          1999,  1996,  4120,  1012,  2007,  1996,  4022,  2000,  2022,  3621,
          2062,  4795,  1010,  2021,  2074,  2004, 26102,  1010,  1996,  7726,
          3212,  2038,  2042, 27696,  1996,  6745,  2804,  2000,  2049,  4170,
          1011,  1037,  8235,  4408, 28653,  2630,  6982,  1012, 11216,  1997,
…
